pb/lstm.onnx (onnx, 2735 bytes, 4 tensors)

3 f4 [12, 3]
0.29748732 -0.25482982 -0.11192599 0.27099025 -0.5435388 0.3462469 -0.11877558 0.2937234
0.08026147 -0.070693135 0.16013438 0.028481722 0.2108646 -0.22499397 -0.042093873 -0.051977277
0.08368343 -0.0023064017 0.5047004 0.17966568 -0.21500885 -0.34869725 -0.09677294 -0.24903467
-0.18501103 0.027644455 0.3441745 0.313811 -0.5643892 0.35791123 0.16129082 0.5476488
0.3810857 -0.52604556 -0.5489495 -0.27847457
00000000: 4250 983e 0e79 82be 7439 e5bd 3cbf 8a3e
00000010: 5c25 0bbf 4647 b13e 9c40 f3bd ea62 963e
00000020: 2060 a43d 90c7 90bd 44fa 233e 8052 e93c
00000030: e4ec 573e d264 66be a06a 2cbd 20e6 54bd
00000040: 3862 ab3d 0027 17bb 0c34 013f 48fa 373e
00000050: 482b 5cbe 7288 b2be e430 c6bd f202 7fbe
00000060: 8873 3dbe a076 e23c a437 b03e d6ab a03e
00000070: d07b 10bf 2440 b73e 6c29 253e b632 0c3f
00000080: aa1d c33e ecaa 06bf f487 0cbf 3894 8ebe

4 f4 [12, 3]
0.50697803 -0.09616864 0.24708247 -0.26830125 0.5665065 -0.24427599 0.4329692 0.006836772
-0.30415818 0.29676658 -0.30646914 0.16980141 -0.16671404 -0.06329745 -0.55505764 -0.27527004
0.31328988 -0.14034072 0.5750694 0.46279728 -0.027033627 -0.38537154 0.3515845 0.17918473
-0.3732106 0.37501472 0.35051036 0.5120491 -0.32363924 -0.095035315 -0.011184335 0.08432633
-0.43816167 -0.40970066 0.3140812 -0.135384
00000000: 50c9 013f 10f4 c4bd 3003 7d3e c85e 89be
00000010: 9206 113f 7c23 7abe 24ae dd3e 0007 e03b
00000020: 9fba 9bbe caf1 973e 86e9 9cbe 6ce0 2d3e
00000030: 16b7 2abe 18a2 81bd 4218 0ebf 32f0 8cbe
00000040: 8867 a03e 7ab5 0fbe c037 133f c4f3 ec3e
00000050: a075 ddbc 6b4f c5be e202 b43e 347c 373e
00000060: 7615 bfbe ee01 c03e 1876 b33e a615 033f
00000070: 0bb4 a5be e0a1 c2bd 803e 37bc 48b3 ac3d
00000080: ba56 e0be 49c4 d1be 40cf a03e 1aa2 0abe

5 f4 [12]
0.28202027 0.032914698 0.18956995 0.12695277 0.20992422 0.28619874 -0.53469104 0.29061007
-0.40594837 -0.43561596 0.03511119 -0.09838462
00000000: f664 903e 90d1 063d a01e 423e e8ff 013e
00000010: 60f6 563e a488 923e 83e1 08bf d8ca 943e
00000020: 77d8 cfbe 0e09 dfbe c0d0 0f3d e07d c9bd

6 f4 [12]
0.33909166 -0.33436412 -0.5132539 0.42017752 -0.08561054 0.3247348 0.18560922 -0.43294072
0.11598867 0.13867754 -0.38656986 -0.2739367
00000000: 6c9d ad3e c631 abbe 9c64 03bf 8221 d73e
00000010: 9454 afbd a443 a63e 5810 3e3e 68aa ddbe
00000020: 788b ed3d 7c01 0e3e 7cec c5be 6e41 8cbe
